…
reshold': 0, 'rewards_shaper': None, 'time_limit_bootstrap': False, 'mixed_precision': False, 'experiment': {'directory': 'runs/torch/MultiGrid_IPPO', 'experiment_name': '', 'write_interval': 200, 'checkpoint_interval': 2000, 'store_separately': False, 'wandb': True, 'wandb_kwargs': {'project': 'MultiGrid-nav', 'name': 'IPPO'}}, 'timesteps': 20000, 'headless': True, 'disable_progressbar': False, 'close_environment_at_exit': True, 'environment_info': 'episode', 'stochastic_evaluation': False, 0: {'policy': OrderedDict([('feature_extractor', MinigridFeaturesExtractor(
  (cnn): Sequential(
    (0): Conv2d(3, 16, kernel_size=(2, 2), stride=(1, 1))
    (1): ReLU()
    (2): Conv2d(16, 32, kernel_size=(2, 2), stride=(1, 1))
    (3): ReLU()
    (4): Conv2d(32, 64, kernel_size=(2, 2), stride=(1, 1))
    (5): ReLU()
    (6): Flatten(start_dim=1, end_dim=-1)
  )
  (linear): Sequential(
    (0): Linear(in_features=1024, out_features=512, bias=True)
    (1): ReLU()
  )
)), ('policy_net', Sequential(
  (0): Linear(in_features=512, out_features=128, bias=True)
  (1): ReLU()
  (2): Linear(in_features=128, out_features=128, bias=True)
  (3): ReLU()
  (4): Linear(in_features=128, out_features=7, bias=True)
))]), 'value': OrderedDict([('feature_extractor', MinigridFeaturesExtractor(
  (cnn): Sequential(
    (0): Conv2d(3, 16, kernel_size=(2, 2), stride=(1, 1))
    (1): ReLU()
    (2): Conv2d(16, 32, kernel_size=(2, 2), stride=(1, 1))
    (3): ReLU()
    (4): Conv2d(32, 64, kernel_size=(2, 2), stride=(1, 1))
    (5): ReLU()
    (6): Flatten(start_dim=1, end_dim=-1)
  )
  (linear): Sequential(
    (0): Linear(in_features=1024, out_features=512, bias=True)
    (1): ReLU()
  )
)), ('value_net', Sequential(
  (0): Linear(in_features=512, out_features=128, bias=True)
  (1): ReLU()
  (2): Linear(in_features=128, out_features=128, bias=True)
  (3): ReLU()
  (4): Linear(in_features=128, out_features=1, bias=True)
))])}, 1: {'policy': OrderedDict([('feature_extractor', MinigridFeaturesExtractor(
  (cnn): Sequential(
    (0): Conv2d(3, 16, kernel_size=(2, 2), stride=(1, 1))
    (1): ReLU()
    (2): Conv2d(16, 32, kernel_size=(2, 2), stride=(1, 1))
    (3): ReLU()
    (4): Conv2d(32, 64, kernel_size=(2, 2), stride=(1, 1))
    (5): ReLU()
    (6): Flatten(start_dim=1, end_dim=-1)
  )
  (linear): Sequential(
    (0): Linear(in_features=1024, out_features=512, bias=True)
    (1): ReLU()
  )
)), ('policy_net', Sequential(
  (0): Linear(in_features=512, out_features=128, bias=True)
  (1): ReLU()
  (2): Linear(in_features=128, out_features=128, bias=True)
  (3): ReLU()
  (4): Linear(in_features=128, out_features=7, bias=True)
))]), 'value': OrderedDict([('feature_extractor', MinigridFeaturesExtractor(
  (cnn): Sequential(
    (0): Conv2d(3, 16, kernel_size=(2, 2), stride=(1, 1))
    (1): ReLU()
    (2): Conv2d(16, 32, kernel_size=(2, 2), stride=(1, 1))
    (3): ReLU()
    (4): Conv2d(32, 64, kernel_size=(2, 2), stride=(1, 1))
    (5): ReLU()
    (6): Flatten(start_dim=1, end_dim=-1)
  )
  (linear): Sequential(
    (0): Linear(in_features=1024, out_features=512, bias=True)
    (1): ReLU()
  )
)), ('value_net', Sequential(
  (0): Linear(in_features=512, out_features=128, bias=True)
  (1): ReLU()
  (2): Linear(in_features=128, out_features=128, bias=True)
  (3): ReLU()
  (4): Linear(in_features=128, out_features=1, bias=True)
))])}, '_wandb': {}}
2025-02-12 17:34:25,878 INFO    MainThread:59106 [wandb_init.py:init():789] starting backend
2025-02-12 17:34:26,498 INFO    MainThread:59106 [wandb_init.py:init():793] sending inform_init request
2025-02-12 17:34:26,526 INFO    MainThread:59106 [backend.py:_multiprocessing_setup():97] multiprocessing start_methods=spawn,fork,forkserver, using: spawn
…
